models/gnn_checkpoint.pt (torch, 4963 bytes, 4 tensors)

conv1.bias f4 [64]
00000000: 158d f03e 032a 70bd b3d8 ef3e 6aaa e93e
00000010: 0c98 e73e 013d b2be c282 ed3e 534d f73e
00000020: 15fe 5abd 4d1b f03e 5619 a0be cbef dfbb
00000030: 3775 a7be 3a44 57bb 3803 a4be a9bc e13e
00000040: 84da e83e e365 bfbe 1338 fc3e bda0 b7bd
00000050: 6192 b4be 2509 f83e 2660 a0be 1ddb a5be
00000060: 0b0b 033f 24f4 023f 36d8 003f e630 b9be
00000070: fcb9 eb3e 67fe c3be 836d e93e 9ffc fb3e
00000080: d29b 2dbc d742 d93e 9297 74be 95cb fc3e
00000090: 6372 b1bd 365a cebd ac05 b7be e88b 013f
000000a0: b465 acbe 202b e83e a7ac f43e 4d2e a9be
000000b0: f436 a2bb aaed 093f b8e9 f23e ccb2 fc3e
000000c0: 60c9 b1be 02b6 f63e 800b a7be 8cbc aebe
000000d0: 4f05 bdbe 776b fe3e c984 c0bd d779 9dbe
000000e0: d69c ca3e fdaf 003f 37b6 adbe bd60 9ebe
000000f0: e3bf 023f 24f4 003f be77 ce3e e383 f33e
0.46982637 -0.058633815 0.46845016 0.45637828 0.4523319 -0.34812167 0.46388823 0.4830118
-0.053464968 0.4689583 -0.3126933 -0.0068340055 -0.32706615 -0.0032847063 -0.32033706 0.4408925
0.45479214 -0.3738242 0.4926153 -0.08966205 -0.35267928 0.48444477 -0.31323355 -0.32393733
0.51188725 0.5115378 0.5032991 -0.3617012 0.46040332 -0.3828003 0.45591363 0.49216172
-0.0105962325 0.42433807 -0.23885944 0.4937407 -0.08664396 -0.100758 -0.35746515 0.50604105
-0.33671343 0.45345402 0.47787973 -0.33043137 -0.0049503986 0.5387827 0.47443938 0.4935516
-0.3472395 0.48185736 -0.3262596 -0.34128225 -0.36918113 0.49691364 -0.09400327 -0.3075702
0.3957278 0.50268537 -0.3392808 -0.3093318 0.51074046 0.5037253 0.4032573 0.4756156

conv1.lin.weight f4 [64, 6]
00000000: fd4c 26be 35df 2b3e 3102 c9be 3aa1 3cbe
00000010: 52e8 993e 5e81 0b3d ed85 003b 65f2 ba3a
00000020: a450 93ba 6d8c 17ba 7ec7 ac39 1130 58ba
00000030: 094c 97be 27ae 0f3d bfaa c2bb dfeb 08be
00000040: a5a9 603c 91c5 233e 2d96 03be 7022 87bd
00000050: 9306 31be d174 69be 0717 a0bd 5093 d6bd
00000060: 5907 3fbe 593c 053e aa43 3abe 3342 a0bd
00000070: 1202 e63e 1af1 6b3e 23c4 103f 52b5 613e
00000080: 9998 783e a939 d43e 6955 dcbe 00c3 26bc
00000090: fd32 c7bd 8674 bfbd 531b a1be 621c 1c3e
000000a0: aacf c13e c619 ea3d 1887 89bd 4651 27be
000000b0: c7eb 2fbe 7972 2b3d 36a4 823e 7914 c83c
000000c0: 4965 3e3b 99f2 6dba 12d3 a53a 8e44 fc39
000000d0: 1325 b838 cd8b 26b9 ba30 65be 9bcd 32bd
000000e0: 7824 79be 73dc bc3d d9a6 2f3e 941a 043e
000000f0: 3c4e 143f 7c9c 213e 3a5b ce3d ece9 f53e
00000100: 4258 c0bd 99ab 9fbd c4a0 1f3c d442 0cba
00000110: 6143 0b3a a830 e33b 2a04 5ebb 0bfa 843a
00000120: d7d0 963e 8576 163f e918 ab3e 5b70 3c3e
00000130: bbea a3be fde6 7fbc 9e2f ddb9 dd76 af39
00000140: 6e19 ee39 b26e 1aba 899d eeba d050 2c3a
00000150: d7c1 083f 51f0 ed3e 54cd e93e a253 bc3e
00000160: 02c7 55bd a9d8 e7bd c4fd 6fbe 6e81 083e
00000170: dbaf 90be 475b 55be 298c 1ebc b42e 123e
00000180: 5d89 abbc ad00 3ebe cc6f aabe c3a7 4bbd
00000190: 1d7b 78bc 0a45 d4bd 5097 fd3e 8994 8d3e
000001a0: 5593 ed3e 9df6 013f 918d 7fbe 369f d7bc
000001b0: 3dbf dfbd 8910 7bbd df77 30be 9a47 9ebd
000001c0: edc0 813e 595d 0a3e 0d2a a7b9 429c d1ba
000001d0: ccab a3b9 f016 0aba a17e 49ba 7981 803b
000001e0: a660 133f 9a0d ed3e a1b8 2b3e 26ca 483e
000001f0: 6325 afbe d823 99bc 681b 7fbd a375 68be
00000200: 8af3 1ebc 5311 42be bb76 cdbd 4b00 29be
00000210: 7626 193f 9a57 a63d 4b0f ea3e b9a1 a23e
00000220: a68c afbe bfcc 63bd 9a9b a53e 36e8 013f
00000230: 95cb e43e a5ad c03d f58f 60be 1190 97bd
00000240: 67d5 00be 77fd 25bd 1cc8 d5bd 7383 4ebe
00000250: 0c40 0b3e 969c 543d ea67 04bd aa40 f8bd
00000260: 9218 cfbe b52f dcbd 72c0 453d cc7f 1d3d
00000270: cb7d 68be 3092 043a 8e81 07be e60f ca3c
00000280: 8f45 a93e 89d2 353d e7d8 fc3e b3f0 fc3e
00000290: e5c6 d23e 75ba 533e b425 a3be 9b43 02bb
000002a0: 8487 2cbe 3e21 f23d 7ce9 57be b5d9 5dbe
000002b0: f2f7 7a3e a2c9 803d eed7 e03e 8e90 023f
000002c0: 6827 be3e a674 de3e 30d8 80be 9a28 f8bb
000002d0: afa5 25be 3c34 a1bd d8d3 6abe 5f89 82bd
000002e0: f7be cd3c 1862 b1bd 6857 e3bd 4a41 19be
000002f0: 520e 46be 1921 f63d 2c04 983e caf7 243d
00000300: bedf 21b9 12d3 b33a a387 79b9 8c5a 8939
00000310: 4e59 b8b8 30c5 c3ba 5cf3 54be d80d 363d
00000320: b8b2 3cbe 4352 e4bd 57db b03d 2c07 cb3c
00000330: ab0f 7e3e b375 833e d133 503e c132 9a3e
00000340: 002d 69be 16fd 343c 8aec aebd f772 bdbd
00000350: dad8 12bd 638a 16be adb0 603e 95f9 9b3d
00000360: 09a3 b23a 6f4f 123b 78a8 f93a a310 433a
00000370: 6a9d 9cba 331b 00bb 7ef1 6dbc 280f eebc
00000380: 88f1 fe3b c06d f43c 8482 9e39 edb1 14b9
00000390: 961e 5a3e 25bc 163f 2dbc c53e acb5 a93e
000003a0: 7f54 99be 1cdf 2a3c 01e2 9ebe 37a4 be3d
000003b0: 6040 83be 3f83 23be 5dd8 ed3c 08d5 ebbc
000003c0: 70d7 c53e cc31 553e 1821 a43e 67ed ec3e
000003d0: 5146 07bf e774 39bd e012 9abe 2490 27be
000003e0: 3cd9 5bbc aefb 2c3e 02d4 a03c 1cd8 8abd
000003f0: 48e9 5abe 4918 1cbd be6c d8be 3f6c d33c
-0.16240306 0.16784365 -0.39259484 -0.18420878 0.3006006 0.03405892 0.0019611076 0.0014262913
-0.0011239243 -0.0005781118 0.0003295503 -0.00082469085 -0.29550198 0.035078194 -0.0059407647 -0.13371228
0.013712321 0.15993334 -0.12850256 -0.06598365 -0.17287664 -0.22798468 -0.07816892 -0.104773164
-0.18655147 0.13011302 -0.18189874 -0.078251265 0.44923455 0.23041192 0.5654928 0.22041824
0.24276961 0.4145024 -0.43033913 -0.010178328 -0.09726522 -0.09348397 -0.3146616 0.15245202
0.37853748 0.11430697 -0.0671522 -0.16339597 -0.17179786 0.041857217 0.25515908 0.024423825
0.002905207 -0.00090769824 0.0012651405 0.00048116263 8.780709e-05 -0.00015883074 -0.22381869 -0.043653112
-0.24330318 0.09221735 0.17153491 0.12900764 0.57931876 0.1578235 0.10075994 0.4803003
-0.09391834 -0.077964015 0.009742919 -0.00053505343 0.00053124694 0.0069332905 -0.0033876994 0.0010145319
0.29456207 0.58774596 0.33417442 0.18402235 -0.32015023 -0.015619037 -0.00042187882 0.0003346716
0.00045413844 -0.00058911287 -0.0018204908 0.00065733213 0.53420776 0.4647241 0.45664465 0.36782557
-0.05219174 -0.113206215 -0.23436648 0.13330624 -0.28259167 -0.20835601 -0.0096769715 0.14275628
-0.020939523 -0.18554945 -0.3328842 -0.049720537 -0.015166071 -0.10364731 0.49529505 0.27652386
0.46401468 0.50766927 -0.24956347 -0.026321035 -0.10925148 -0.061295066 -0.17233227 -0.07728501
0.25342503 0.13512172 -0.00031884052 -0.0015992003 -0.0003121778 -0.00052677 -0.00076864107 0.0039216843
0.5756935 0.4629944 0.16769649 0.19608364 -0.3420821 -0.01869385 -0.062281996 -0.22701125
-0.009701619 -0.18951921 -0.10032412 -0.16504018 0.5982431 0.081221774 0.45714793 0.3176401
-0.34286994 -0.055615183 0.32345277 0.5074495 0.4468657 0.0940812 -0.21929915 -0.07400525
-0.12581407 -0.040524926 -0.104385585 -0.20167331 0.1359865 0.051907144 -0.032325663 -0.12121709
-0.40448433 -0.10751287 0.048279233 0.038451955 -0.22704236 0.0005057184 -0.13233015 0.024665784
0.33060881 0.044390235 0.49384233 0.4940239 0.4116737 0.20676596 -0.31864703 -0.0019876722
-0.1684857 0.11822747 -0.21085161 -0.2166508 0.24508646 0.062884584 0.4391474 0.5100182
0.3713944 0.4344837 -0.25164938 -0.0075731995 -0.16176485 -0.07871291 -0.22932374 -0.06373858
0.025115473 -0.08661288 -0.11100656 -0.14966312 -0.193414 0.120180316 0.29690683 0.040275373
-0.00015437507 0.001371952 -0.00023797019 0.0002619814 -8.790438e-05 -0.0014936086 -0.20795959 0.044446796
-0.18427551 -0.11148503 0.08635586 0.024783693 0.24810664 0.25675735 0.20332266 0.30116847
-0.22771072 0.0110466685 -0.0854121 -0.092504434 -0.035851337 -0.14701228 0.21942396 0.07615963
0.001362891 0.0022325178 0.00190474 0.0007441139 -0.0011948769 -0.0019547462 -0.014522908 -0.029059961
0.0077802576 0.02983749 0.0003023335 -0.00014180662 0.2130073 0.58880836 0.3862013 0.33146417
-0.29947278 0.01042917 -0.31031802 0.09308665 -0.25635052 -0.15968035 0.029033834 -0.028788105
0.38640928 0.20819777 0.320565 0.46274874 -0.5284167 -0.045277502 -0.30092525 -0.16363579
-0.013418492 0.16892883 0.019632343 -0.06779501 -0.21378052 -0.038109098 -0.42270464 0.025808452

conv2.bias f4 [2]
00000000: f043 bf3e f043 bfbe
0.3735652 -0.3735652

conv2.lin.weight f4 [2, 64]
00000000: dbef ca3e 79e9 153a c299 dc3e 09d3 003f
00000010: 5ed2 423f d03a 93be 95f4 423f 1557 073f
00000020: 6ee4 1e3d fe00 0f3f 76c1 2dbf d73c 593b
00000030: 4a9e f0be e0ad 97b9 b612 0bbf 1205 403f
00000040: af11 313f 002d 86be de89 473f 29d0 33ba
00000050: 4d76 f6be 6a3f 233f 4122 fabe 4c67 e6be
00000060: 905b 813e baa2 013f dce0 b23e 2fe6 b7be
00000070: c5f7 473f 148b ddbe 2779 0c3f 506b 363f
00000080: fea2 953b 8807 6e3e d1e1 413c b54c da3e
00000090: c5f2 63bc 3b26 2cbc 238b 06bf a769 7a3e
000000a0: 756b 06bf b9d0 1c3f bcd1 133f f18e 03bf
000000b0: 1f60 e939 0a35 b23e 942e f03e eea9 d63e
000000c0: ec59 1ebf 06c9 103f fb27 21bf 0c4b 10bf
000000d0: 3002 15bf 3b45 273f ad14 86bb 762b edbe
000000e0: e977 0a3f 4359 303f a76c 67be 4272 20bf
000000f0: f1a9 a33e 01bd d13e 282d 143f 482a 0b3f
00000100: 086d 36bf 9ae5 5eba e633 39bf 2a3d 29bf
00000110: ff2d 15bf a2b3 2f3f 4b8c d4be e1a8 13bf
00000120: 0d05 e63c 0cc2 0abf 1ca2 053f 67b1 51bb
00000130: 8801 073f fed2 2ebb f3d8 103f 51ed 09bf
00000140: 4077 12bf c595 133f 8b72 8bbe 9884 00bb
00000150: 6756 043f 3984 20bf fa88 153f f347 203f
00000160: 0ecd 44bf 5820 eebe 7878 37bf f6e0 d83e
00000170: 78f1 c4be e509 913e 712c 22bf 3446 d4be
00000180: 7e98 93bc f5f4 fcbe ae86 ee3e 7723 2fbf
00000190: e479 e5bc ab94 f9bc a0e5 db3e dcb4 25bf
000001a0: ee33 023f d777 20bf 0d1c 2dbf bd3c fb3e
000001b0: 8c48 933b bad5 11bf 9695 2dbf be67 1dbf
000001c0: 55cd 6f3e ffbf 14bf c240 fd3e 4b75 db3d
000001d0: b5e1 2c3e d511 08bf a1bd 10bc a1ed 003f
000001e0: 1892 04bf 8751 e5be 3429 0c3f fe3b 033f
000001f0: 6c3d 4abf de55 1bbf e799 16bf e2de 31bf
0.3963612 0.0005718689 0.43086058 0.50322014 0.76102245 -0.28755808 0.7615445 0.5286725
0.038792066 0.5586089 -0.6787332 0.0033147836 -0.46995765 -0.0002893051 -0.54325426 0.75007737
0.6916761 -0.26206207 0.77944744 -0.00068593264 -0.4813713 0.6376864 -0.4885426 -0.45000684
0.2526517 0.50638926 0.3493718 -0.35917804 0.7811244 -0.4327017 0.54872364 0.71257496
0.0045665493 0.2324506 0.011833624 0.42636648 -0.013912861 -0.010507162 -0.52556056 0.24454366
-0.52507716 0.61255985 0.57741904 -0.51389986 0.0004451284 0.3480609 0.46910536 0.4192652
-0.6185596 0.5655674 -0.6295163 -0.5636451 -0.5820646 0.6534001 -0.00409182 -0.4632222
0.5408922 0.688862 -0.22600041 -0.62674344 0.31965593 0.4096451 0.578814 0.5436139
-0.7126012 -0.0008502841 -0.72344816 -0.66108954 -0.5827331 0.6863347 -0.41513285 -0.57679564
0.02807858 -0.5420234 0.52200484 -0.003199661 0.5273671 -0.0026676054 0.5658104 -0.5387774
-0.5721321 0.57650405 -0.27235827 -0.0019610282 0.5169434 -0.62701756 0.58412135 0.62609786
-0.7687539 -0.4650905 -0.71668196 0.42359132 -0.38465476 0.2832786 -0.6334906 -0.4145981
-0.01801705 -0.49405637 0.46587127 -0.6841349 -0.028012224 -0.030466398 0.42948627 -0.64729095
0.5086049 -0.6268286 -0.6762093 0.49069777 0.0044947322 -0.56966746 -0.67806375 -0.61486423
0.23418172 -0.5810546 0.4946347 0.10715731 0.16882975 -0.5315221 -0.008834274 0.5036259
-0.5178542 -0.44788763 0.5475037 0.51263416 -0.7899997 -0.606779 -0.58828586 -0.6948072
