models/lstm_checkpoint.pt (torch, 73269 bytes, 6 tensors)

lstm.weight_ih_l0 f4 [256, 2]
0	0x3d98e5c5	0.074657
1	0x3e158d0a	0.14604583
2	0x3d2a1be6	0.041530512
3	0x3e1725e8	0.14760554
4	0xb92fbb07	-0.00016758974
5	0xbbf7c7d0	-0.0075616613
6	0xbdc01d0e	-0.09380542
7	0x3deafe1a	0.11474247
8	0x3e0f79cf	0.1401131
9	0xbd809285	-0.062779464
10	0x3dd43308	0.10361296
11	0x3dbefddb	0.09325763
12	0x3e01d960	0.12680578
13	0x3d391481	0.04518557
14	0x3ca34c62	0.019933883
15	0x3c047050	0.008083418
16	0x3e48c022	0.19604543
17	0x3d67d8ac	0.05660312
18	0xbdd7746f	-0.10520255
19	0x38d0f9b5	9.9647244e-05
20	0x3ce9758f	0.02849844
21	0xbc945af5	-0.018109778
22	0xbdff2706	-0.12458615
23	0x3d242a42	0.040079363
24	0xbe1fd684	-0.15609175
25	0xbdeee495	-0.11664692
26	0xbda3c586	-0.07996659
27	0xbdd6f08d	-0.104951
28	0xbcb8ac8a	-0.02254321
29	0xbe285cc4	-0.16441637
30	0x3e0abda1	0.135489
31	0xbd983882	-0.07432653
32	0x3e2dc803	0.1697083
33	0x3da9d729	0.08292992
34	0xbdaf7430	-0.08567083
35	0x3cc58633	0.024111843
36	0x3d8dae59	0.0691802
37	0x3e0baf26	0.13641033
38	0xbb74e211	-0.0037366191
39	0xbca4c992	-0.020115647
40	0x3d75c3fc	0.06000136
41	0xbc21ea60	-0.0098825395
42	0x3da41cbb	0.080132924
43	0x3e1b3bcb	0.15159528
44	0x3def4fa8	0.11685115
45	0xbc57d739	-0.013173872
46	0x3dd6590b	0.10466202
47	0xbaefc80c	-0.0018293872
48	0x3d3919e8	0.04519072
49	0xbcce8b73	-0.025212979
50	0xbdb12dfa	-0.086513475
51	0xb93cb034	-0.00017994718
52	0xbe041302	-0.12897876
53	0x3d65b34d	0.056079198
54	0xbcfc4743	-0.030795699
55	0xbc9fdba2	-0.019513909
56	0xbd090463	-0.03345145
57	0x3c3f6914	0.011682767
58	0x3cf86269	0.030320363
59	0xbe2445f3	-0.16042309
60	0xbd4d9482	-0.050190456
61	0xbe1a2c42	-0.15055946
62	0x3d879006	0.06619267
63	0xbce107d0	-0.027469546
64	0xbcaf979d	-0.0214346
65	0xbd94c460	-0.07264018
66	0x3e1e6e5e	0.15471789
67	0xbd112fe7	-0.035446074
68	0xbc3e9927	-0.011633194
69	0xbcb63b14	-0.022244968
70	0x3e3cc64d	0.1843502
71	0x3d9cd2a0	0.07657361
72	0x3e043dd4	0.1291421
73	0xbd1176d6	-0.03551372
74	0xbdc00385	-0.09375671
75	0xbe1f5bd3	-0.15562372
76	0xbd7e420d	-0.06207471
77	0x3dc1352d	0.094339706
78	0x3b80aceb	0.0039268634
79	0x3e0bd428	0.1365515
80	0xbdf04a4c	-0.11732921
81	0xbdd359a2	-0.103198305
82	0x3c7e7bca	0.015532443
83	0xbddfa876	-0.10920803
84	0x3d444e31	0.04792613
85	0xbc0f740e	-0.008755697
86	0x3e1a0323	0.15040259
87	0xbd2117d7	-0.039329376
88	0xbe060e03	-0.13091283
89	0xbcc1b136	-0.023644071
90	0x3d41287c	0.04715775
91	0xbd26f04a	-0.0407565
92	0x3e253b47	0.16135894
93	0x3ce19101	0.027534964
94	0xbd2aced8	-0.041701168
95	0xbc705ff0	-0.014671311
96	0x3d05b1b9	0.032640193
97	0xbdfbf090	-0.12301743
98	0x3d1ebf20	0.03875649
99	0xbd2475ba	-0.040151335
100	0xbdf38e07	-0.11892324
101	0xbd29208a	-0.041290797
102	0xbd9501f2	-0.07275762
103	0xbda95ebc	-0.08270022
104	0xbbe4058b	-0.0069586686
105	0xbdb992f8	-0.09061235
106	0xbe1c90f7	-0.15289675
107	0xbde6cbd3	-0.11269345
108	0xbe30ac65	-0.17253263
109	0xbe138aa6	-0.14408359
110	0x3d8fc9a2	0.0702088
111	0xbd080921	-0.03321183
112	0x3d20e539	0.039281104
113	0xbe3c36ee	-0.18380329
114	0xbd88ff1b	-0.066892825
115	0xbd6c6e3b	-0.05772231
116	0x38ee885e	0.00011374125
117	0xbdfb4916	-0.122697994
118	0xbda7bd14	-0.08190361
119	0xbdbefe4b	-0.09325846
120	0xbd75e9d5	-0.060037453
121	0xbde8cca4	-0.11367157
122	0x3d4f31b3	0.050584506
123	0xbc3b6874	-0.011438478
124	0xbd04c3ec	-0.03241341
125	0x3bce1a6d	0.0062897713
126	0xbbbd9e00	-0.0057866573
127	0xbd8752fc	-0.06607625
128	0x3e0baf37	0.13641058
129	0x3c7f511e	0.015583305
130	0x3e0d5ad5	0.13804181
131	0x3da14997	0.07875364
132	0xbe20c35e	-0.15699527
133	0x3d298cc6	0.041394018
134	0xbcfd2c7a	-0.030904997
135	0xbab09019	-0.0013470679
136	0xbda088e0	-0.07838607
137	0xbdb831c1	-0.08993865
138	0x3d2a0733	0.041510772
139	0x3d031c7b	0.032009583
140	0x3d8caf54	0.06869379
141	0xbda01afa	-0.07817645
142	0x3e0188ee	0.12649891
143	0xbd70e2d0	-0.058810055
144	0x3c50edd1	0.012752012
145	0x3d92353b	0.07139059
146	0x3da6ea74	0.08150187
147	0x3de72845	0.11286978
148	0x3d626b60	0.055278182
149	0xbe1773c7	-0.1479026
150	0xbc314b93	-0.010821241
151	0xbdcf30e6	-0.101167485
152	0xbd95ea6a	-0.073201016
153	0xbe1f4ef6	-0.15557465
154	0x3d867b79	0.06566519
155	0xbdfe6088	-0.124207556
156	0x3cda10ce	0.026619341
157	0xbb1fe6a1	-0.002439894
158	0x3d90c40a	0.070686415
159	0xbcdeb5c2	-0.027186278
160	0x3e25c562	0.16188577
161	0x3dbc0322	0.09180285
162	0xbd12249e	-0.035679452
163	0xbe2d5321	-0.16926242
164	0x3db46968	0.08809167
165	0x3cbc08e5	0.02295346
166	0xbd206a20	-0.03916371
167	0x3e053c0f	0.13011192
168	0x3d41812e	0.047242336
169	0xbd177a91	-0.036982123
170	0xbd5670be	-0.052353613
171	0x3d33d54b	0.043904584
172	0x3dd1716d	0.102267124
173	0x3c8a6dc0	0.016898036
174	0xbde25a32	-0.1105236
175	0xbd9aac36	-0.07552378
176	0xbd571d4f	-0.052518185
177	0x3dbf9a80	0.093556404
178	0x3e0f8c97	0.14018475
179	0xbd782e40	-0.060590982
180	0x3cca2b28	0.024678782
181	0x3d4b1aab	0.04958598
182	0xbbe092e9	-0.0068534506
183	0xbde7f0e8	-0.11325246
184	0x3dba1584	0.09086135
185	0x3dad0b81	0.0844946
186	0xbccee696	-0.025256436
187	0xbdc25627	-0.094890885
188	0xbdc21b7b	-0.09477898
189	0xbd5e5ee2	-0.054289706
190	0xbd09235e	-0.033480994
191	0xbd519bd1	-0.05117399
192	0x3d218942	0.03943754
193	0x3d79abe7	0.060954954
194	0x3c788895	0.015169282
195	0x3c6172a9	0.013760247
196	0x3d59afcc	0.05314617
197	0x3d540207	0.051759746
198	0x3d7dc36f	0.061953958
199	0x3da29a3d	0.07939575
200	0xbe1c1e90	-0.15246034
201	0xbd57e251	-0.052706067
202	0x3d17a949	0.037026677
203	0xbcbaea9a	-0.022816945
204	0xbcc74fe0	-0.02433008
205	0xbca81e0a	-0.020522136
206	0xbda6ba64	-0.0814102
207	0xbda19d44	-0.07891324
208	0xbdb1b668	-0.08677369
209	0x3c2533c4	0.010083143
210	0x3c9ed105	0.019386778
211	0xbbdc3ea5	-0.006721335
212	0xbe0ac178	-0.13550365
213	0xbd50739c	-0.050891504
214	0x3caf909e	0.021431264
215	0x3e37b8ac	0.1794154
216	0xbd1d7baf	-0.038448032
217	0xbdbf8340	-0.09351206
218	0x3c13a277	0.009010903
219	0xbdaaeaf9	-0.08345599
220	0xbe19b90b	-0.15011995
221	0x3cb6c36c	0.022309981
222	0xbd5eb32c	-0.05437009
223	0x3cd3dc24	0.025861807
224	0xbe4c19de	-0.19931743
225	0x3a66ea2e	0.0008808699
226	0x3e2037dc	0.15646309
227	0x3dfa909e	0.12234615
228	0xbe1fd60e	-0.15608999
229	0xbe5069fe	-0.20352933
230	0xbe164fe9	-0.14678921
231	0x3d94ba0f	0.0726205
232	0x3d4f2097	0.05056819
233	0x3dd7bfbd	0.10534618
234	0x3d5b58b9	0.05355141
235	0x3c33c21e	0.010971574
236	0xbd84a1d4	-0.06476179
237	0xbe242c0f	-0.16032432
238	0xbe2b6da6	-0.16741046
239	0xbe36a1fe	-0.17835233
240	0xbc22fb58	-0.00994762
241	0xbe04e7d0	-0.12979054
242	0xbd8d205e	-0.06890939
243	0xbda24e0e	-0.07925044
244	0xbd654c61	-0.055981044
245	0xbdaa6a18	-0.08321017
246	0xbd940d3d	-0.072290875
247	0x3d1d0d38	0.038342685
248	0xbdd8fb40	-0.10594797
249	0x3c230b2f	0.009951397
250	0x3d3328c0	0.043740034
251	0xbc3662be	-0.01113194
252	0x3d6d2f08	0.05790618
253	0x3d051804	0.032493606
254	0xbc809dfe	-0.015700337
255	0xbdb38fb6	-0.08767645

lstm.weight_hh_l0 f4 [256, 64]
0	0x3d08270e	0.03324037
1	0xbd315225	-0.04329123
2	0xbdc0ac92	-0.09407915
3	0xbe2bbef0	-0.16772056
4	0x3e284d8c	0.16435832
5	0xbd87542f	-0.066078536
6	0x3de0ca74	0.10976115
7	0x3c84b735	0.016200641
8	0x3d06f470	0.032947958
9	0x3d9e80fa	0.07739444
10	0x3cc195ae	0.023630943
11	0x3d66180f	0.056175288
12	0x3d8ba82c	0.068191856
13	0xbe0ef6d8	-0.13961351
14	0x3cb2074c	0.021731995
15	0x3db475cf	0.08811533
16	0x3da39751	0.07987846
17	0xbce9db1c	-0.028546862
18	0x3ca20f7b	0.019782772
19	0xbdddca6e	-0.10829626
20	0xbd95e2ab	-0.07318624
21	0x3d42546c	0.047443792
22	0x3dfe2ec8	0.124112666
23	0x3ca41171	0.020027848
24	0xbdcf07db	-0.1010892
25	0x3d8e2677	0.0694093
26	0xbdaa05af	-0.08301865
27	0x3e00e5b7	0.1258763
28	0xbdbaba25	-0.091175355
29	0x3ce5c11f	0.028046189
30	0xbabc3f3a	-0.0014362105
31	0x3d00ac72	0.031414457
32	0x3dc2c51d	0.095102526
33	0xbc319d44	-0.010840718
34	0x3d20a8de	0.039223544
35	0x3d1e4578	0.03864047
36	0x3dc0b382	0.094092384
37	0xbdaa6216	-0.0831949
38	0xbd83a95a	-0.064287856
39	0xbb9c478d	-0.0047692717
40	0xbcd256a3	-0.025676077
41	0x3c7020cb	0.014656256
42	0xbcde9286	-0.027169477
43	0xbe208d47	-0.15678893
44	0x3cd4dac1	0.025983216
45	0x3b810441	0.0039372747
46	0x3dab5df0	0.083675265
47	0x3dd6f6d4	0.104962975
48	0x3dee8e30	0.11648214
49	0x3d867aeb	0.065664135
50	0xbd026a98	-0.031839937
51	0xbe1e5e8a	-0.15465751
52	0xbdbdc836	-0.09266703
53	0xbd27bbf6	-0.040950738
54	0xbdaf06a3	-0.08546188
55	0xbdd02688	-0.10163599
56	0xbd923c58	-0.07140416
57	0xbdd4960f	-0.10380184
58	0xbd8152dc	-0.06314632
59	0xbe060362	-0.13087228
60	0xbd697408	-0.05699542
61	0x3da78d2c	0.08181223
62	0x3dabc810	0.08387768
63	0xbd8133c7	-0.06308704
64	0xbda70d1b	-0.081567965
65	0x3dbd4acc	0.09242782
66	0xbd066176	-0.03280779
67	0xbdaebc83	-0.085320495
68	0x3dea636e	0.11444746
69	0xbd9f4300	-0.07776451
70	0xbcc6e605	-0.024279604
71	0x3da07d4d	0.07836399
72	0x3d8ff099	0.07028312
73	0x3cd55925	0.026043484
74	0xbd8fcd32	-0.0702156
75	0x3c1b5e63	0.009482953
76	0x3cd44c19	0.025915192
77	0x3d1b4128	0.037903935
78	0x3d777aea	0.060419954
79	0x3e167109	0.14691557
80	0xbd912991	-0.07088006
81	0xbd0a0cde	-0.033703677
82	0xbde9ce1d	-0.11416266
83	0xbe07edeb	-0.13274352
84	0xbd3948eb	-0.045235556
85	0xbe1c9c1a	-0.15293923
86	0x3de1df96	0.11028974
87	0xbc4d41a9	-0.012527862
88	0xbc73bc4a	-0.014876435
89	0x3dbfb6b6	0.09361021
90	0xbdefe4a9	-0.11713535
91	0xbd87bf4e	-0.06628285
92	0x3bf41c41	0.007449657
93	0xbdd3d1a7	-0.103427224
94	0xbdb78f7c	-0.08962914
95	0xbd86237c	-0.06549737
96	0x3dfce252	0.12347855
97	0x3e19c6b0	0.150172
98	0x3d7f2c6e	0.06229823
99	0xbdf68920	-0.12037873
100	0xbde3872b	-0.111097656
101	0x3db17b89	0.086661406
102	0x3c8dee84	0.017325647
103	0xbd4e66a5	-0.05039086
104	0x3d186877	0.037209
105	0xbe0681b0	-0.1313541
106	0xbd8b879e	-0.06812976
107	0x3da869ac	0.0822328
108	0xbbcfdfe9	-0.006343831
109	0x3cebaeae	0.028769817
110	0xbdd28dff	-0.1028099
111	0xbd17d430	-0.037067592
112	0xbc0e1b9b	-0.008673574
113	0xbdca75a3	-0.09885719
114	0x3c559ef1	0.013038383
115	0xbc8aaf11	-0.016929181
116	0xbe117f9c	-0.14208835
117	0x3d89b643	0.06724217
118	0xbdc5ce0c	-0.09658441
119	0xbd7a3508	-0.06108573
120	0x3d9ccbaf	0.07656037
121	0x3e06f88d	0.13180752
122	0xbd763ebc	-0.060118422
123	0xbd048df0	-0.032361925
124	0xbdedc4fb	-0.11609837
125	0xbd473f30	-0.048644245
126	0xbe072836	-0.13198933
127	0x3a5fc259	0.0008535735
128	0x3d0b71ea	0.034044184
129	0xbd9c17c8	-0.076217234
130	0x3dc9d1f8	0.098545015
131	0x3c7e3b7a	0.01551711
132	0xbdd57d9f	-0.10424351
133	0xbc437213	-0.011929053
134	0x3d877e2a	0.06615861
135	0x3b967dba	0.0045926245
136	0xbb5ace56	-0.0033387146
137	0xbd3d520e	-0.04622083
138	0x3e11da6f	0.14243482
139	0xbd9dbec8	-0.07702404
140	0x3dacd33c	0.08438727
141	0xbc9b62f7	-0.018968089
142	0x3bea1532	0.00714364
143	0x3e0db2b8	0.13837707
144	0x3cd93ed0	0.02651921
145	0xbde08904	-0.10963634
146	0xbc91b99f	-0.017788706
147	0x3d942138	0.072328985
148	0xbe007ae1	-0.12546875
149	0xbbeede4f	-0.007289685
150	0xbda878bb	-0.082261525
151	0x3dc23f4a	0.09484728
152	0x3d4ae61a	0.04953585
153	0x3d914563	0.070933126
154	0x3d4fde7e	0.050749294
155	0x3caf7b29	0.021421032
156	0x3d38b8c7	0.045098092
157	0xbd8b6392	-0.06806101
158	0xbaf11f66	-0.0018396198
159	0x3d88486d	0.06654439
160	0x3dd1e29c	0.102483004
161	0x3cffe9f7	0.031239493
162	0xbdc313eb	-0.095252834
163	0x3d9bd0cb	0.076081835
164	0xbc98b213	-0.0186396
165	0xbd844b9d	-0.064597346
166	0xbe04d8c4	-0.12973315
167	0xbd5c7172	-0.053819127
168	0x3dc397ee	0.09550463
169	0xbc9db2cc	-0.019250296
170	0xbd66ec06	-0.056377433
171	0xbc696ec7	-0.014247603
172	0xbd81b0de	-0.06332563
173	0x3dc631d4	0.09677473
174	0xbda85de6	-0.08221035
175	0xbd8c5bca	-0.06853445
176	0xbdbe7772	-0.09300126
177	0xbdd0974c	-0.101851076
178	0xb9c9acea	-0.00038466539
179	0x3d9a874a	0.075453356
180	0x3d173c4b	0.036922734
181	0x3e1ded0a	0.15422454
182	0x3d40ba35	0.04705258
183	0x3d241b71	0.040065233
184	0x3e0c8841	0.13723852
185	0x3dcf3abf	0.10118627
186	0xbd3be01b	-0.04586802
187	0x3e041c17	0.1290134
188	0x3dadc965	0.084856786
189	0xbc94822c	-0.018128477
190	0xbd9a0b3d	-0.07521675
191	0xbe0efe57	-0.1396421
192	0xbd5004dd	-0.050785888
193	0xbd6e1a83	-0.058130752
194	0x3de21849	0.11039788
195	0x3b35a5ec	0.0027717305
196	0xbd361dc1	-0.04446197
197	0x3dab5e50	0.08367598
198	0xbdae1c36	-0.085014746
199	0xbbdf0a7b	-0.0068066693
200	0x3e1fff74	0.15624791
201	0xbe33e061	-0.17566063
202	0x3db0050c	0.085947126
203	0x3e107d07	0.14110194
204	0x3dc7545a	0.09732886
205	0xbdecfde9	-0.11571867
206	0xbc13ca89	-0.009020456
207	0x3cc3a1af	0.023880808
208	0x3bdae770	0.0066804215
209	0x3d75f4c8	0.060047895
210	0xbd16ac7a	-0.03678558
211	0x3d27c5db	0.040960174
212	0xbdd9d9b4	-0.10637227
213	0xbcdd57bd	-0.027019376
214	0x3dac9aa6	0.08427934
215	0xbe26ed49	-0.16301455
216	0xbd12f13b	-0.035874587
217	0xbcd5bd2b	-0.026091179
218	0x3df953c1	0.12174178
219	0xbe247a7f	-0.16062354
220	0xbd20095e	-0.039071433
221	0x3d545db4	0.051847175
222	0x3d00f4c8	0.03148344
223	0x3c9c9abe	0.019116756
224	0xbd20957a	-0.039205052
225	0xbca606fb	-0.020267
226	0xb8862cf6	-6.3979925e-05
227	0x3d04647b	0.03232239
228	0x3d87b844	0.06626943
229	0x3cb751b4	0.022377826
230	0xbc37951a	-0.011204982
231	0x3d147efb	0.03625391
232	0xbd6473a4	-0.055774346
233	0xbd8563ee	-0.06513201
234	0x3d0508d4	0.032479122
235	0xbe10c1aa	-0.14136377
236	0xbc8b4788	-0.017001882
237	0x3e25f5da	0.16207066
238	0x3bff293c	0.007786898
239	0x3dde0ebb	0.10842653
240	0xbda9474e	-0.082655534
241	0xbcfd8d00	-0.030951023
242	0x3e2139c7	0.15744697
243	0xbdbc1561	-0.09183765
244	0x3bd9f431	0.0066514243
245	0x3d74f913	0.05980785
246	0xbdfde7c9	-0.12397725
247	0x3e15e3e3	0.14637713
248	0xbd7551b9	-0.05989239
249	0x3ccd0544	0.025026925
250	0xbdb96491	-0.09052385
251	0xbd04ea03	-0.032449733
252	0xbe095e4e	-0.1341488
253	0x3dc65989	0.09685046
254	0x3d0c5c5f	0.03426778
255	0xbd585027	-0.052810814

lstm.bias_ih_l0 f4 [256]
0	0xbd2529e9	-0.04032317
1	0x3e0eb60d	0.13936634
2	0xbd0eec05	-0.034893055
3	0xbd03c225	-0.032167573
4	0x3d62095a	0.0551847
5	0x3d32c96b	0.04364912
6	0x3d4830ab	0.04887454
7	0x3e042022	0.12902883
8	0x3e3587bc	0.1772756
9	0xbe0b20e5	-0.13586767
10	0xbdce56cc	-0.10075149
11	0xbe0811b2	-0.13288
12	0x3e1d2c03	0.1534882
13	0x3d096dfb	0.03355215
14	0xbca30737	-0.019900901
15	0xbce507bb	-0.027957788
16	0x3d3456b2	0.04402799
17	0x3d5b8690	0.053595126
18	0x3e05313c	0.13007063
19	0x3e0377ca	0.12838665
20	0x3e2ef651	0.1708615
21	0xbc15d36f	-0.009144648
22	0x3d0967dd	0.033546317
23	0xbd162f1b	-0.036666017
24	0x3c7aa2f6	0.015297642
25	0x3d1023fa	0.03519056
26	0x3c8804af	0.016603796
27	0xbc1c2da0	-0.009532362
28	0xbcca03ef	-0.024660079
29	0x3c930429	0.01794632
30	0x3dcac491	0.09900773
31	0x3d9ce787	0.07661348
32	0x3e0b2f13	0.13592176
33	0xbd81acec	-0.0633181
34	0x3ddcfcf7	0.10790437
35	0x3e3bd840	0.18344212
36	0x3dd9c138	0.10632557
37	0xbd840484	-0.06446174
38	0xbdb4f7c6	-0.088363215
39	0x3d75d9db	0.060022216
40	0xbccb9aca	-0.024854083
41	0x3dea6d25	0.11446599
42	0x3db9b71d	0.09068129
43	0x3d8121fa	0.06305309
44	0x3c878858	0.016544506
45	0x3e076942	0.13223746
46	0xbd195868	-0.037437826
47	0xbca7ebc8	-0.020498171
48	0x3d46d5d8	0.04854378
49	0xbbdb35ff	-0.0066897864
50	0x3dcc3818	0.099716365
51	0x3c10d7dd	0.008840528
52	0xbd0b1b29	-0.03396145
53	0x3c52f478	0.012875669
54	0x3cef8be4	0.02924151
55	0x3c817f1e	0.015807685
56	0x3dd8efb4	0.10592595
57	0x3d3e6f58	0.046492904
58	0xbd18d02f	-0.037307914
59	0xbd5964e9	-0.05307475
60	0xbd10f465	-0.035389323
61	0x3e01dffe	0.12683102
62	0x3e101ece	0.14074251
63	0x3ca42d39	0.020041095
64	0x3e04003e	0.12890717
65	0x3c0d5a4f	0.008627488
66	0x3d32e1f5	0.04367252
67	0xbd0b5490	-0.034016192
68	0x3da948ec	0.08265862
69	0x3c8b004d	0.016967917
70	0x3da96f33	0.08273163
71	0xbdad44e7	-0.08460408
72	0x3db5e369	0.08881266
73	0xbdf31bd2	-0.11870541
74	0xbde68e2a	-0.112575844
75	0xbe0b6256	-0.13611731
76	0x3ce8ad44	0.028402932
77	0x3d86deff	0.06585502
78	0x3d689fe0	0.056793094
79	0x3dc19bb9	0.0945353
80	0xbcf1da4c	-0.029523037
81	0xbd55230b	-0.052035373
82	0x3d009606	0.031393073
83	0xbd80603d	-0.06268356
84	0x3d3d60c7	0.046234872
85	0x3de64cf4	0.112451464
86	0x3d5831dd	0.05278193
87	0xbd9b4ba7	-0.07582789
88	0x3e3cdad6	0.18442854
89	0x3e0f8ce6	0.14018592
90	0xbde5f1fa	-0.11227794
91	0xbd8eb933	-0.06968918
92	0x3d6d6b5c	0.057963714
93	0x3d933cec	0.07189354
94	0x3c707fbc	0.014678892
95	0x3b9c345a	0.004766983
96	0x3d413f22	0.04717935
97	0xbd04b306	-0.032397293
98	0xbd2379f0	-0.03991121
99	0x3e0c7d9d	0.13719793
100	0x3d03ce5f	0.032179233
101	0x3dbae4ce	0.09125672
102	0x3df25764	0.11833075
103	0x3d7c6368	0.06161824
104	0x3c600728	0.013673581
105	0x3e056f81	0.13030817
106	0xbdc84709	-0.09779174
107	0x3e1dfd67	0.15428697
108	0x3e0c938b	0.13728158
109	0x3c05881c	0.008150127
110	0x3e06ecb2	0.1317623
111	0xbcc22d8b	-0.023703357
112	0xbcf0d885	-0.02940012
113	0x3dd3ba00	0.10338211
114	0x3daea7e3	0.085281156
115	0x3cc019c2	0.023449782
116	0xbe1c5bc8	-0.15269387
117	0x3d56a016	0.052398764
118	0x3d90bb7c	0.0706701
119	0xbcdf8fa1	-0.027290167
120	0x3cc4b0ad	0.024010027
121	0x3d8c96c4	0.06864694
122	0x3d1d349f	0.03838026
123	0xbd3ec0d1	-0.046570603
124	0x39a69b21	0.00031777567
125	0xbcd27ddc	-0.02569478
126	0x3e014bac	0.12626523
127	0x3de703a1	0.11279989
128	0xbcbaa915	-0.022785703
129	0x3bab2489	0.005222861
130	0xbdb6d051	-0.08926452
131	0xbd24378d	-0.04009204
132	0x3d8a38d2	0.06749119
133	0xbda2a6d7	-0.079419784
134	0x3be1f7d0	0.0068959966
135	0x3dea2c14	0.114341885
136	0x3d6d53cb	0.05794124
137	0x3daadc8b	0.083428465
138	0x399bfc4a	0.00029751874
139	0xbcabc8d8	-0.020969793
140	0xbddb138e	-0.10697089
141	0xbd7908d7	-0.060799446
142	0x3ccaad39	0.024740802
143	0x3d613284	0.054979816
144	0x3dd6473b	0.10462805
145	0xbdaec2f6	-0.085332796
146	0x3c946844	0.018116124
147	0xbdbaa9b2	-0.09114398
148	0xbdcbcf4b	-0.09951647
149	0xbd688ae5	-0.056773085
150	0xbd841157	-0.0644862
151	0x3c574edc	0.01314136
152	0x3d088645	0.033331174
153	0x3db92b82	0.090415016
154	0x3cf9913a	0.030464757
155	0x3cb13c4d	0.021635199
156	0x3d635f93	0.05551107
157	0x3d4646d7	0.048407402
158	0xbdde40a7	-0.10852175
159	0xbd82715e	-0.06369279
160	0xbdcb6ae4	-0.09932497
161	0xbd7e9982	-0.062158115
162	0x3c10d40a	0.008839617
163	0x3dde908c	0.10867414
164	0x3dc07392	0.09397043
165	0xbd6cd9b3	-0.0578248
166	0x3c01d218	0.007923625
167	0x3d64cc18	0.0558587
168	0x3d6bbe8d	0.05755477
169	0xbde068e3	-0.109575056
170	0xbad4c87f	-0.0016234069
171	0x3d0da8ba	0.03458474
172	0x3c81f97c	0.015866034
173	0x3de756ea	0.112958744
174	0x3dffe80a	0.1249543
175	0xbd856c6c	-0.065148205
176	0x3dc8060e	0.0976678
177	0xbe018f09	-0.1265222
178	0xbdcefdca	-0.10107
179	0x3cefb403	0.029260641
180	0xbd17b4ef	-0.037037786
181	0x3dd33dc8	0.10314518
182	0x3db61d53	0.08892312
183	0xbd276473	-0.04086728
184	0x3e089760	0.13338995
185	0xbd8974d7	-0.067117386
186	0x3c99c529	0.018770771
187	0x3c9f2aaf	0.019429533
188	0x3de77bef	0.11302935
189	0x3decf399	0.115699
190	0xbc42d47f	-0.011891483
191	0xbd330cb1	-0.043713275
192	0x3e179683	0.1480351
193	0x3dc4ef4d	0.096159555
194	0x3d2fe7c7	0.04294565
195	0x3deb7a35	0.114979185
196	0x3dbfb927	0.09361487
197	0x3ca964a4	0.020677872
198	0x3dbf7396	0.09348218
199	0x3d13999e	0.036035173
200	0x3d747a7e	0.05968713
201	0xbcaabd72	-0.020842288
202	0x3c312485	0.01081193
203	0xbdd4e002	-0.103942886
204	0xbd38ac67	-0.04508629
205	0x3db4c50b	0.088266455
206	0xbc2043ce	-0.009781791
207	0x3d8c2740	0.06843424
208	0x3e043ba8	0.12913382
209	0x3dfa67dc	0.12226841
210	0x3e03a1f6	0.12854752
211	0x3dab543c	0.08365676
212	0x3e1de880	0.15420723
213	0x3c138694	0.009004254
214	0x3e0f0407	0.1396638
215	0xbd66501a	-0.056228735
216	0xbc5bb549	-0.013409921
217	0xbcb35876	-0.021892767
218	0x3d6f5e04	0.05843927
219	0x3ddf5376	0.10904591
220	0x3d91118d	0.07083426
221	0x3def4565	0.11683158
222	0xbd9d47e1	-0.076797254
223	0xbd9a1cd4	-0.0752503
224	0x3d9963bd	0.07489727
225	0x3c030524	0.007996831
226	0x3d83690d	0.06416521
227	0x3c8e80b7	0.01739536
228	0x3e2c2db3	0.16814308
229	0xbd88d16f	-0.06680571
230	0x3d128a86	0.035776637
231	0x3e079d72	0.13243654
232	0xbdc587a1	-0.0964501
233	0x3e17dfbd	0.14831443
234	0x3d1cea35	0.038309295
235	0x3ccd09c5	0.025029073
236	0xbbf1cc6a	-0.0073791044
237	0x3e211c24	0.15733391
238	0x3b5b89b7	0.0033498832
239	0x3d0c8621	0.034307603
240	0x3daff4d1	0.08591617
241	0x3d85a78d	0.065260984
242	0xbd18591b	-0.037194353
243	0x3e2d6427	0.16932736
244	0xbc65ab17	-0.014017842
245	0x3c92d1cb	0.017922303
246	0xbc9910eb	-0.018684825
247	0x3dd6ee67	0.104946904
248	0x3c8609fd	0.016362185
249	0x3d4f4f22	0.050612576
250	0x3d1d06a3	0.038336407
251	0x3dae291d	0.085039355
252	0xbc283caa	-0.01026837
253	0x3da6bf62	0.08141972
254	0x3e273d49	0.16331972
255	0x3db03563	0.08603933

lstm.bias_hh_l0 f4 [256]
0	0x3d6ef091	0.05833489
1	0xbd5842d6	-0.052798115
2	0xbbe7bfd5	-0.0070724287
3	0x3dbe9321	0.09305406
4	0xbac635dc	-0.0015122253
5	0xbc8bf770	-0.01708576
6	0x3e01f9a4	0.12692887
7	0xbce1500b	-0.027503988
8	0xbc53faf2	-0.012938248
9	0x3b4d1f3a	0.003129913
10	0x3d8da972	0.06917085
11	0xbdfdab83	-0.12386229
12	0x3d860705	0.065443076
13	0xbd434f4d	-0.04768305
14	0x3dc1f7c1	0.094710834
15	0x3dfbadb7	0.12288993
16	0x3d8eda4c	0.069752306
17	0x3e0f41f2	0.1399
18	0x3d0b9f4e	0.03408747
19	0xbcb61aa8	-0.022229508
20	0x3dbf9320	0.09354234
21	0x3de4c6b7	0.11170714
22	0xbc80ad37	-0.015707595
23	0xbd21ace3	-0.03947152
24	0x3cb704e4	0.0223412
25	0x3daae4bc	0.08344409
26	0xba2f976f	-0.00066982856
27	0xbc0fbfc0	-0.008773744
28	0x3e1b2c5f	0.15153645
29	0xbd2b6252	-0.041841812
30	0x3d06755f	0.032826778
31	0x3dd44e3b	0.10366484
32	0xbd43bab0	-0.04778546
33	0x3e26dff0	0.16296363
34	0x3a879f28	0.0010347115
35	0x3e26b338	0.16279304
36	0x3d059dd7	0.03262123
37	0xbcd3e462	-0.025865737
38	0x3de534f0	0.11191738
39	0x3d354c52	0.044262238
40	0xbb5180a1	-0.0031967538
41	0x3e215ae7	0.15757333
42	0xbe0413f5	-0.12898238
43	0x3e2ffd57	0.17186485
44	0xbc09d5e4	-0.008412812
45	0xbd190e9a	-0.03736744
46	0x3de7aea7	0.11312609
47	0xbae14cd5	-0.0017189035
48	0xbd8866fa	-0.06660266
49	0xbd40422d	-0.04693811
50	0x3dd6f4fb	0.10495945
51	0x3db50bb3	0.08840122
52	0xbd5aa26e	-0.05337756
53	0x3d2a3ead	0.04156368
54	0x3d84a057	0.06475895
55	0xbd19fada	-0.037592746
56	0x3d556bb9	0.052104685
57	0x3d86d732	0.06584014
58	0xbcf54167	-0.029938413
59	0x3c4fa66a	0.012673954
60	0x3e036c87	0.12834369
61	0x3b977325	0.0046218806
62	0x3e3c860a	0.18410507
63	0x3e2e564c	0.17025107
64	0x3e25826a	0.1616303
65	0x3d67af0b	0.05656342
66	0x3daeb58b	0.0853072
67	0x3d693529	0.056935463
68	0xbd11b5a1	-0.035573605
69	0xbbd0b700	-0.0063694715
70	0xbc9a49ea	-0.018834073
71	0x3c8214d7	0.015879078
72	0x3d0a48b4	0.03376074
73	0xbd7ac0f8	-0.061219186
74	0xbda6fd09	-0.081537314
75	0xbdd31a54	-0.10307756
76	0x3db6103b	0.088898145
77	0x3e287680	0.16451454
78	0xbbe3f4af	-0.006956659
79	0xbc8f511d	-0.017494733
80	0xbc925445	-0.017862448
81	0xbc86c52e	-0.016451444
82	0xbd81a161	-0.06329609
83	0x3e104f60	0.14092779
84	0x3e163fc8	0.14672768
85	0x3e3732ee	0.17890522
86	0xbcefabfa	-0.02925681
87	0xbd381294	-0.044939592
88	0x3e3dfeae	0.18554184
89	0xbd30974c	-0.043113038
90	0xbe252e6b	-0.16130988
91	0xbd89ea74	-0.067341715
92	0x3d9f3fe6	0.077758595
93	0x3cdd43d2	0.027009878
94	0xbce6bc27	-0.02816589
95	0x3e2cad8f	0.16863082
96	0xbd013914	-0.031548575
97	0x3d544094	0.0518194
98	0x3db3fd2f	0.08788525
99	0x3e20cb52	0.1570256
100	0x3dfb3bd6	0.12267272
101	0x3ccf87cf	0.025333313
102	0x3d9dce0a	0.077053145
103	0x3d58bdc5	0.052915353
104	0xbc4a691c	-0.012354162
105	0xbd047761	-0.03234041
106	0x3d6cd910	0.057824194
107	0x3dcbb40e	0.09946452
108	0x3d9d0084	0.07666114
109	0x3d3dae79	0.04630897
110	0x3dad5c01	0.08464814
111	0xbdb2718d	-0.08713064
112	0x3e0793b3	0.13239937
113	0x3de50254	0.11182085
114	0x3dc10f72	0.09426774
115	0x3ce488f8	0.027897343
116	0xbe2eaf75	-0.17059119
117	0xbd581fa3	-0.052764546
118	0xbd77953a	-0.060445048
119	0xbc4dbadc	-0.012556758
120	0x3e020345	0.1269656
121	0xbd13cb98	-0.036082834
122	0x3de18c64	0.110131055
123	0xbd556e94	-0.05210741
124	0xbd67addc	-0.05656229
125	0xbda750c9	-0.081697054
126	0x3dbb1ec7	0.0913673
127	0x3dcd9f44	0.10040143
128	0x3d710874	0.058845952
129	0x3e030eed	0.12798662
130	0x3d9d90f5	0.07693664
131	0xbe021d2d	-0.12706442
132	0x3c2088e8	0.009798266
133	0x3e191824	0.14950615
134	0x3da01b37	0.07817691
135	0x3d33596e	0.04378646
136	0xbd5f7639	-0.054556105
137	0xbdac4dbe	-0.08413266
138	0x3e1e530a	0.15461364
139	0xbd526428	-0.051365048
140	0x3d2e0f34	0.042494968
141	0xbd0ba458	-0.034092277
142	0xbd483366	-0.048877142
143	0x3d68bb53	0.05681927
144	0x3e16151e	0.14656493
145	0xbd36af0b	-0.044600528
146	0x3d14f56a	0.036366858
147	0x3ce71a51	0.02821079
148	0xbcdfbf59	-0.027312921
149	0x3c835a73	0.01603434
150	0x3d7e30ee	0.06205838
151	0x3dceebb9	0.10103554
152	0xbd096075	-0.033539254
153	0x3dd9c804	0.10633853
154	0xbd2fa5f5	-0.04288288
155	0x3d3ec18a	0.046571292
156	0xbdc0a675	-0.09406749
157	0x3dc0c1dd	0.094119765
158	0x3deb9553	0.11503091
159	0x3cbdee0f	0.023184804
160	0x3bd714e5	0.00656377
161	0x3d2fe1fa	0.042940117
162	0xbdeb6269	-0.114933796
163	0xbdef83e7	-0.1169508
164	0x3dcde0e2	0.100526586
165	0xbdf413ca	-0.11917837
166	0xbd4935a4	-0.04912342
167	0xbdda93c9	-0.10672719
168	0xbdae6fdb	-0.085174285
169	0xbd77633d	-0.060397375
170	0xbc931da0	-0.017958462
171	0xbdeedbc4	-0.11663011
172	0xbdcda99c	-0.10042116
173	0xbdd0f602	-0.10203172
174	0x3c841287	0.016122116
175	0xbcea3d06	-0.028593551
176	0x3dc185a8	0.09449321
177	0xbe0988cd	-0.13431092
178	0xbe0ea223	-0.13929038
179	0xbd73cfc2	-0.059524305
180	0x3dac5e1c	0.084163874
181	0x3ddf55bf	0.10905027
182	0xbad347fa	-0.0016119473
183	0xbd45e090	-0.048309863
184	0x3cff0eea	0.031135041
185	0x3ce416a4	0.027842827
186	0x3becc1c6	0.007225248
187	0xbd988d84	-0.07448867
188	0x3c174f8b	0.009235273
189	0x3c8eec7b	0.017446747
190	0x3af26cbe	0.0018495542
191	0xbd88eecf	-0.06686174
192	0x3cb503ec	0.022096597
193	0x3d953b73	0.0728673
194	0x3e02c10a	0.12768951
195	0x3dbe5f16	0.0929548
196	0x3d31b39e	0.043384187
197	0x3d75f8eb	0.06005184
198	0x3c45de9a	0.012076998
199	0x3e1140f7	0.14184938
200	0x3e29e763	0.16592173
201	0xbe1b6e83	-0.15178876
202	0x3d94327c	0.07236192
203	0x3dd650c1	0.10464621
204	0x3da3b5f8	0.07993692
205	0xbd54d118	-0.05195722
206	0x3df4537c	0.11929986
207	0x3d939915	0.072069325
208	0xbc725bbb	-0.014792378
209	0x3dad459f	0.08460545
210	0x3e1fe62c	0.15615147
211	0x3d972e7f	0.07381915
212	0xbced8016	-0.02899174
213	0x3e147aec	0.14500016
214	0xbd5c515b	-0.053788524
215	0xbda58083	-0.08081152
216	0x3bb74a5e	0.005593582
217	0x3dc2b280	0.095067024
218	0x3d04957d	0.032369126
219	0x3d9b999c	0.07597658
220	0x3de6ab5f	0.11263155
221	0xbd996a16	-0.074909374
222	0xbc95c3a8	-0.018281773
223	0xbce00aef	-0.027348964
224	0xbd8fdde0	-0.07024741
225	0xbd12f6df	-0.035879966
226	0xbdade32a	-0.08490594
227	0x3ad8d7cb	0.0016543804
228	0x3d8b5450	0.06803191
229	0xbc834212	-0.016022716
230	0xbcba8574	-0.022768714
231	0x3d3ebe52	0.046568222
232	0xbcaa9d90	-0.020827085
233	0xbd9affd3	-0.07568326
234	0xbe047408	-0.12934887
235	0xbcfd4d14	-0.030920543
236	0x3e0b6e3c	0.1361627
237	0x3d86c8cc	0.06581268
238	0xbd93f99d	-0.07225344
239	0xbcb46529	-0.022020893
240	0x3cdfe704	0.027331837
241	0xbd9b36e6	-0.075788304
242	0x3e0190b1	0.12652852
243	0x3e28e413	0.16493253
244	0xbcb3416e	-0.021881785
245	0xbd339a91	-0.043848578
246	0x3de595a3	0.112101816
247	0x3da68e52	0.08132614
248	0x3d2e2c65	0.042522807
249	0xbcb9425d	-0.022614652
250	0xbe09c946	-0.13455686
251	0x3cf5d79f	0.030010043
252	0x3d5665bf	0.052343126
253	0x3d9e4e4d	0.077297784
254	0x3e017866	0.12643585
255	0x3e28a5bd	0.16469474

fc.weight f4 [2, 64]
0	0xbcc842af	-0.02444586
1	0xbc444ada	-0.011980737
2	0xbe0c58c6	-0.1370574
3	0x3e0fbdb0	0.14037204
4	0xbd704fef	-0.05866998
5	0xbe059cf6	-0.13048157
6	0x3e012c72	0.12614611
7	0x3d57f755	0.05272611
8	0xbddd86b5	-0.10816709
9	0x3da3be63	0.07995298
10	0xbdbda3ac	-0.092597336
11	0xbd9b2b72	-0.07576646
12	0xbdd8d674	-0.10587779
13	0xbd63a1cc	-0.055574223
14	0xbe0ea3b5	-0.13929637
15	0xbcf2cc12	-0.029638324
16	0xbe184003	-0.14868169
17	0xbde366ce	-0.11103593
18	0xbbd75c59	-0.006572288
19	0xbd5f248e	-0.05447822
20	0x3dad2f8e	0.08456336
21	0x3e01f024	0.12689263
22	0xbd65cea0	-0.056105256
23	0x3b4c67b3	0.003118974
24	0xbd9296cf	-0.07157671
25	0xbe01f185	-0.12689789
26	0xbd6b16fc	-0.057394966
27	0xbc7a74b3	-0.015286612
28	0xbe05aed3	-0.13054971
29	0x3db88a31	0.09010733
30	0x3e241044	0.1602183
31	0x3e083d40	0.13304615
32	0xbdf967e2	-0.12178017
33	0x3d095f44	0.033538118
34	0x3de32a9c	0.110921115
35	0x3d406923	0.046975266
36	0x3ce017fd	0.027355189
37	0xbe378c6d	-0.17924662
38	0x3bccfdb1	0.0062558283
39	0x3cda0201	0.026612284
40	0xbd5e08d6	-0.054207645
41	0xbe2fb47c	-0.17158693
42	0xbc842830	-0.016132444
43	0x3d9b6ee0	0.07589507
44	0xbdd19779	-0.10233969
45	0xbda6e182	-0.08148481
46	0x3e337e92	0.17528751
47	0x3cd43532	0.025904272
48	0xbcd01510	-0.025400668
49	0xbd215d7b	-0.03939579
50	0x3cc85f22	0.024459425
51	0x3e127149	0.14301027
52	0xbc8dab4d	-0.017293597
53	0xbd01d17f	-0.03169393
54	0x3b5b09ad	0.0033422515
55	0xbda7fc69	-0.0820244
56	0x3d3cfc02	0.04613877
57	0xbc2466c0	-0.010034263
58	0xbd0b08df	-0.033944007
59	0xbd8658f7	-0.065599374
60	0x3dc56164	0.096377164
61	0xbdd54579	-0.104136415
62	0x3da11830	0.078659415
63	0xbe290317	-0.16505085
64	0xbe0c63bc	-0.1370992
65	0x3d8d332f	0.06894528
66	0x3d1f4385	0.03888275
67	0x3d931c99	0.07183189
68	0x3e34ec56	0.1766828
69	0xbda63879	-0.0811624
70	0xbde5209a	-0.11187859
71	0xbc1cb111	-0.0095637
72	0x3d67085f	0.056404468
73	0xbda93149	-0.082613535
74	0xbd4339b8	-0.047662467
75	0xbd5a4ae9	-0.053294096
76	0x3d9b9231	0.07596243
77	0x3dfbe7dc	0.12300083
78	0x3df364eb	0.11884483
79	0x3e264597	0.16237484
80	0xbd1cda25	-0.038293976
81	0x3e0d975c	0.1382727
82	0xbe0d8960	-0.13821936
83	0xbe132e02	-0.1437302
84	0xbde0ce55	-0.10976855
85	0xbc700ee0	-0.014651984
86	0x3d3d7cc8	0.04626158
87	0xbe18f476	-0.14937004
88	0x3ddce794	0.107863575
89	0x3ca9e512	0.020739112
90	0x3cf2234f	0.029557852
91	0xbe0b9584	-0.13631254
92	0xbd828d19	-0.063745685
93	0xbda495fb	-0.08036419
94	0xbde02220	-0.10944009
95	0xbd8558c9	-0.06511075
96	0x3c3a131e	0.011357097
97	0x3e21b75c	0.15792602
98	0xbc90c36e	-0.017671313
99	0xbe4705b1	-0.19435765
100	0xbe110e03	-0.14165501
101	0x3d6a5043	0.05720545
102	0x3d6252f1	0.05525488
103	0xbd378380	-0.044803143
104	0xbd19ed73	-0.037579965
105	0x3d99bb16	0.07506387
106	0x3dbf4b17	0.09340494
107	0xbdc082fd	-0.09399984
108	0x3e047dc7	0.12938605
109	0x3e2a283e	0.16616914
110	0x3d465633	0.04842205
111	0x3d497e62	0.049192794
112	0xbe400ca1	-0.18754818
113	0xbdfe1795	-0.12406842
114	0x3e00c6ed	0.12575884
115	0xbe03e51d	-0.12880369
116	0x3c9cb67f	0.01912999
117	0x3cd95ac0	0.02653253
118	0xbe2b27f1	-0.16714455
119	0x3dfc6fe0	0.12326026
120	0xbe11f46e	-0.14253399
121	0xbd4bdb8d	-0.049769927
122	0x3d825d17	0.06365412
123	0x3dddea43	0.108356975
124	0x3d0bce45	0.03413226
125	0x3d847155	0.06466929
126	0xbdb05b0a	-0.08611114
127	0x3e08fbbe	0.13377282

fc.bias f4 [2]
0	0xbdeeb32c	-0.11655268
1	0x3d787d22	0.06066621
