models/mlp_checkpoint.pt (torch, 3497 bytes, 6 tensors)

fc1.weight f4 [8, 4]
000000 a2 9d 82 3e 34 21 47 3f ab db 6f be 2c e7 4f 3f
       0.2551089 0.7778504 -0.2342364 0.81212115
000010 ee 27 3a bf d0 a9 15 3f c8 ee 4f bf b5 c3 3d 3f
       -0.7271718 0.5846224 -0.81223726 0.7412675
000020 5f 81 62 3f 37 0a 09 bf ac 46 5e 3f 70 5c 66 3c
       0.88478655 -0.5353121 0.86826587 0.014060125
000030 00 6f 62 3f 9f 0d 89 be 9d 85 3d 3f e7 29 c5 be
       0.8845062 -0.26768205 0.74032 -0.3850853
000040 65 17 82 3f 85 81 7d be 0d 95 cb 3e a5 29 3e be
       1.016339 -0.24756439 0.39762154 -0.18570574
000050 a0 78 79 bf 2c b2 af 3e 27 33 45 bf ce a5 36 3f
       -0.97449684 0.34315622 -0.7703118 0.7134675
000060 2a 14 ca be 8c 09 6c be 6c 93 10 be fe ec 99 be
       -0.3946851 -0.23050517 -0.14118737 -0.30063623
000070 fe 2b 0e 3f 74 e1 87 be bc f2 71 3f b2 90 11 be
       0.55535877 -0.26539195 0.9451101 -0.14215353

fc1.bias f4 [8]
000000 83 90 1d 3f ce 78 03 3f aa 07 84 3e 78 ad f5 3e
       0.6154863 0.5135621 0.25787097 0.4798391
000010 f3 41 9d 3e 65 f4 46 3f 00 e3 5f 3d 5c 3d 99 3e
       0.30714378 0.77716666 0.054659843 0.29929626

fc2.weight f4 [8, 8]
000000 f2 5b 3d 3e 61 d8 fc be 67 c7 14 3f 17 10 46 3f
       0.18492106 -0.49383834 0.58116764 0.773683
000010 d0 ca 5a 3f cc 6a 8b be fc fd 50 3e 6d bc 09 3f
       0.8546572 -0.27229917 0.20409387 0.5380314
000020 22 9e 0e 3f 62 c5 90 3e 71 9b 5e bf fb cf a5 be
       0.5571004 0.2827559 -0.86955935 -0.3238524
000030 db 13 72 be 1b 41 2d 3f 95 8e d0 3d 2a 5d a8 be
       -0.23640387 0.6767747 0.10183445 -0.3288358
000040 9a be 1a bb be b7 7c bd 85 09 25 3e e0 9d 80 be
       -0.0023612143 -0.061698668 0.16116913 -0.2512045
000050 bf 92 be bd 16 18 9a be 4c 45 df 3d c2 54 53 be
       -0.09305333 -0.300965 0.10901889 -0.20637801
000060 97 ae 98 3e 25 8b e5 be c1 37 39 3f 4f ff 77 3e
       0.298207 -0.4483272 0.723507 0.24218486
000070 ef e2 14 3f b9 d7 a6 be 08 d1 a2 3e 7a d2 17 3f
       0.58158773 -0.32586458 0.31800103 0.59305537
000080 01 a4 05 3e 71 b4 c2 be 92 21 84 3c df e5 b7 be
       0.13050844 -0.3802829 0.016129289 -0.35917565
000090 b3 15 a1 be c6 94 18 bd 26 a3 01 3e f1 d8 70 3f
       -0.31461868 -0.037251256 0.12659892 0.94081026
0000a0 e5 5c 74 bd a5 b1 d9 3b a4 fe 30 3f 96 55 0a 3f
       -0.059658904 0.0066434913 0.6913855 0.54036844
0000b0 a2 9f 35 3f 10 21 18 3d 4d 1a 4f 3e 63 c0 b6 3e
       0.70946705 0.037140906 0.20224877 0.35693654
0000c0 ae 2a 84 3e f9 bb 20 3f 2d b6 aa be 8d 46 19 bf
       0.25813812 0.62786824 -0.33342114 -0.59873277
0000d0 81 2a 9f 3d ff 0e 25 3f 39 45 83 be c5 5c 27 bf
       0.07771779 0.6447601 -0.2563875 -0.6537593
0000e0 26 c9 1c 3f 03 f4 a1 3e 02 fd 01 bf 12 d3 16 bf
       0.6124443 0.3163148 -0.50776684 -0.5891582
0000f0 d5 f2 e8 be 8f 50 c0 3e 83 25 3f bd e0 d6 2b bf
       -0.45497766 0.3756146 -0.046666633 -0.6712475

fc2.bias f4 [8]
000000 13 6b 9f 3e 4a 21 36 3e b6 7c d3 be b5 b1 43 3e
       0.3113638 0.17786136 -0.41306084 0.19110759
000010 3e be f0 be e3 68 ea bc 06 69 57 3f ce 62 e4 3e
       -0.47020143 -0.028614467 0.8414463 0.44606632

out.weight f4 [2, 8]
000000 98 e2 0c 3f 48 d4 44 bf 71 9e f8 bd bc 3b b0 3e
       0.55033255 -0.76886415 -0.12139595 0.34420574
000010 0a 3a 13 3e ca 12 ed 3e 22 80 13 bf f9 0d 27 bf
       0.14377609 0.46303397 -0.5761739 -0.65255696
000020 4f 7c e1 be 79 77 9d 3e 48 8e 0a be 4e 93 33 bf
       -0.44040152 0.30755213 -0.13530838 -0.70146644
000030 d9 8e a9 be 7c fb 7a bf cc 0a 9b 3e 1d ba 25 3e
       -0.33116797 -0.98039985 0.30281675 0.16184278

out.bias f4 [2]
000000 d2 9b 2c 3d fe 8d 3c 3e
       0.04214079 0.1841354
